model/clip_finetuned.pt (torch, 6301 bytes, 2 tensors)

weight f4 [2, 512]
00000000: 6e0e b0bd bdef e7bd f7f9 d73d ee06 c63d
00000010: 8679 a9bd 1eda be3d d7fe d3bd 92ff 8dbd
00000020: b123 aa3d 1774 dcbd aced 7b3d b5ef d6bd
00000030: 72b5 62bd aef8 033e 1183 a1bd acb2 46bd
00000040: 44af f3bd c4dd 173d bb9c e63d 4b8c db3d
00000050: 58bc eb3a 72eb 37be dd6d bdbc cac6 ef3d
00000060: 5217 223e f779 d3bd 1b28 dbbd 305a 86bd
00000070: 097d 05be 5bc8 9cbd aacb 8ebd 40d1 b93d
00000080: 0134 963d d744 61bd 3143 89bd efe0 babd
00000090: 6255 2b3d 3e09 dbbd 34c7 09be 07fe cdbd
000000a0: 860b 0bbe 6958 783d 306a 9fbd 5300 eb3d
000000b0: e60d 93bd 13d8 89bd bb5e 82bd b8ed ef3b
000000c0: 026c a6bd bf06 f5bd e8ac ff3d 34c2 e8bd
000000d0: d211 543d 3350 c8bc ad3b d2bd b045 963d
000000e0: fcfe 643c 266b c9bd 0368 b53b 136d ab3d
000000f0: ca42 97bd fc73 093e f5d7 d93d 7115 373c
00000100: 4a30 abbd 4782 353d d55c cf3d 8182 c4bb
00000110: d965 483c ea45 533e 8362 13be eb8f 543e
00000120: 3f98 31bd 7bdc aabc ded6 673d a6ac 6cbd
00000130: d973 92bc 37ad 973d 0989 233e a1fe e43d
00000140: 8c41 d9bd ac53 333e b16e 08bd 99ed 153e
00000150: 6067 fabd f0da e9bd 1b43 843d 776b 0a3e
00000160: a362 0abe a5d9 433d 6083 863c 9f78 843c
00000170: e214 2f3d 1486 223d af5b 1b3d 426e ecbd
00000180: 64ad e43d 8fdf c0bd 2a25 bd3c df5b d3bd
00000190: 641c c7bd 04a4 d63b f70a 0a3e a467 8fbd
000001a0: 6b7d 253c 3b7f c8bd e26b 443d 9726 ed3d
000001b0: 8d25 783d 1154 d33d b91a ecbd d756 b63d
000001c0: cf5d 88bd 3e58 6a3d f21e b93c 22bf 3dbe
000001d0: 7ad0 dc3d e3e4 44bc a4e2 15be 53db 123e
000001e0: a3fb babd 8add e2bc 69cd 8bbd b28f 7b3d
000001f0: 5a55 8fbd 7236 893d 455d 0bbe 1d63 d6bd
00000200: a002 35bd b705 063e 7962 f8bd 8ef5 0f3d
00000210: 4d95 6e3d 40cf 70bd c154 6c3b c3a4 0ebd
00000220: eac3 aabc b2ce d43d d622 a23d 14fb f0bc
00000230: 87ca a5bd 04a2 d6bd 4ef5 9ebd f8bb 193e
00000240: a20b 373b 617b 0bbd 96b7 903c b448 4e3d
00000250: 6980 063e c698 0bbe 9b06 843d bb75 5ebd
00000260: 918f c1bd 46b5 cabd 4546 023e 5bf1 02be
00000270: 6fad afbd 4a79 423e c5ba e13d 6fe7 e43d
00000280: 4278 523d a5ab b13d a406 0f3e a9fa 06bd
00000290: 7db9 eebd cbb7 953c 7c70 bcbd 428c ccbd
000002a0: 3b82 b1bc 4588 1d3d 9d1e 3e3d bc62 02be
000002b0: 165f 58bd 8e2a 0b3d 9249 9bbd 80d3 47bc
000002c0: 1ce0 18bd 4d1b 10be c44c d9bd 29df a33d
000002d0: 9fd7 a0bd 30e8 dbbd b888 4fbc 0824 54bd
000002e0: 0b3d 9ebd 9631 c1bd c8ef 993d 3a26 55bd
000002f0: 867c f13d fd55 073e 6256 a6bd 7e24 c13d
00000300: 8179 8ebd a4e9 8fbd fcf8 193c f7cb a9bd
00000310: 599e 923c 2939 d6bd e2d0 823d 303e 08be
00000320: 24a4 33bc 5c17 57bc 04d3 b8bc 1108 c7bd
00000330: 78ce 723d a3d2 4cbd d59f 043e 2981 fa3d
00000340: bc11 b83d e5a7 00be b983 efbd 6893 8e3d
00000350: 90e1 44bd 0d89 e2bc 34eb 113e 9f43 8f3d
00000360: 87f9 c23d 886b 2bbc 2eab ddbd e19c 913d
00000370: a7d0 12be d6da d13d 815c 273e 389a dfbb
00000380: 585a 82bd 4b8c e7bc 0354 243d 255c 9f3d
00000390: e7d7 333c e8e4 d83d f2a5 51bd df17 863d
000003a0: 5561 9fbd c41a 1b3e cdf3 f43d 2b2b a5bd
000003b0: f372 f43d 56a5 d1bd fe15 263d 2d42 6f3d
000003c0: 3c5a 82bd bb83 9bbb 77a2 73bd 7eef d53d
000003d0: aa83 ca3d af8c 9dbd f42d 03be 44e3 803d
000003e0: b20c 8e3c a501 07be 49fa f23d db92 823d
000003f0: c458 813d d048 093e 8ccd 40bd 30c6 babd
-0.08596502 -0.11325023 0.10545724 0.096692905 -0.08275132 0.09318946 -0.10351341 -0.06933512
0.08307589 -0.1076433 0.06150596 -0.10494939 -0.05534882 0.12887833 -0.07886327 -0.04851024
-0.11898664 0.037076727 0.11260363 0.10720118 0.0017985208 -0.17960909 -0.023123676 0.11707838
0.15829208 -0.10325997 -0.10701009 -0.06560171 -0.13035978 -0.07655402 -0.069724396 0.090731144
0.07334138 -0.05499729 -0.06702269 -0.09124934 0.041829474 -0.10695122 -0.13454896 -0.100582175
-0.13578615 0.06063119 -0.077839255 0.11474671 -0.07180385 -0.06730666 -0.06365725 0.0073220395
-0.081260696 -0.11964177 0.12484151 -0.11365166 0.051774807 -0.024452304 -0.102652885 0.073375106
0.013976809 -0.0983489 0.005536081 0.08370414 -0.07385786 0.13423151 0.10636894 0.011174546
-0.0835882 0.044313695 0.10125128 -0.0059970026 0.012231314 0.20632139 -0.14393048 0.20758025
-0.043358084 -0.020857086 0.056601398 -0.057781838 -0.017877506 0.07406085 0.15970244 0.11181379
-0.10608205 0.17512387 -0.03330869 0.14641418 -0.122267485 -0.11418712 0.06458112 0.13517557
-0.1351419 0.047814984 0.016420066 0.016170798 0.042744525 0.039678648 0.037929233 -0.115444675
0.11165884 -0.094176404 0.02308901 -0.103202574 -0.09722212 0.006550314 0.13480745 -0.0700219
0.010100703 -0.09789892 0.047954448 0.11579626 0.060582686 0.10318769 -0.115285344 0.08903282
-0.066585176 0.05721306 0.022597764 -0.18529943 0.10781951 -0.0120174615 -0.14637238 0.14341478
-0.09130027 -0.027693529 -0.06826288 0.061416335 -0.069987014 0.06699838 -0.13609798 -0.10468123
-0.044191957 0.13088118 -0.12128157 0.03514629 0.058247853 -0.0587914 0.003606126 -0.034825098
-0.020845372 0.103909865 0.07916801 -0.029416598 -0.0809527 -0.10480121 -0.07761632 0.1501311
0.0027930518 -0.03405321 0.017665666 0.050362304 0.13134922 -0.13632497 0.064465724 -0.054311495
-0.09451211 -0.098978564 0.12722118 -0.12787382 -0.08578002 0.1899158 0.110219516 0.11176955
0.051384218 0.08675317 0.13967377 -0.032953892 -0.11656473 0.018276116 -0.09201142 -0.099876896
-0.021668544 0.038460035 0.046415914 -0.12732977 -0.052825056 0.03397613 -0.07582392 -0.012196422
-0.037323102 -0.14072914 -0.10610345 0.08001549 -0.078536265 -0.107376456 -0.012666874 -0.051792175
-0.07726487 -0.09433286 0.07516438 -0.05203841 0.11791329 0.13216396 -0.08121945 0.094307885
-0.06956769 -0.07026985 0.009397741 -0.08290856 0.017897772 -0.10460121 0.063874975 -0.13304973
-0.010964427 -0.013128128 -0.022561558 -0.097183354 0.059278935 -0.050005566 0.12951596 0.122316666
0.089877576 -0.12564047 -0.11695046 0.06961709 -0.048066676 -0.027653242 0.14249879 0.069953196
0.0952025 -0.010462649 -0.108236656 0.071100004 -0.14337407 0.10246818 0.16343881 -0.006823804
-0.06364888 -0.02826514 0.040119182 0.07781247 0.010976768 0.105905354 -0.05118365 0.06547522
-0.077822365 0.15146929 0.11960564 -0.08064874 0.11935987 -0.102366135 0.040548317 0.05841272
-0.06364867 -0.004745928 -0.05948111 0.1044607 0.09888394 -0.07692849 -0.12810498 0.062933475
0.017340038 -0.13184221 0.11864144 0.06375667 0.06315759 0.13406682 -0.047071025 -0.091198325

bias f4 [2]
00000000: 1778 c6bd 1ed4 8a3d
-0.09690874 0.067787394
